…
rain_video_freq=None, control_mode=None, obs_mode='rgb', render_mode='all', render_size=128, image_size=16, apply_jitter=True, total_timesteps=2000000, buffer_size=1000000, batch_size=512, num_updates=256, learning_starts=5000, policy_lr=0.0003, q_lr=0.0003, alpha_lr=0.0003, policy_frequency=4, target_network_frequency=1, alpha=0.2, autotune=True, bootstrap_at_done='always', gamma=0.9, tau=0.01, num_q=2, num_atoms=101, v_min=-20.0, v_max=20.0, compile=True, cudagraphs=True, num_total_iterations=976)
-----------------------
Squint
-----------------------
CNNEncoder(
  (conv): Sequential(
    (0): Conv2d(3, 32, kernel_size=(4, 4), stride=(2, 2))
    (1): ReLU()
    (2): Conv2d(32, 64, kernel_size=(4, 4), stride=(1, 1))
    (3): ReLU()
    (4): Flatten(start_dim=1, end_dim=-1)
  )
)
Actor(
  (proj): Projection(
    (rgb_proj): Sequential(
      (0): Linear(in_features=1024, out_features=50, bias=True)
      (1): LayerNorm((50,), eps=1e-05, elementwise_affine=True)
      (2): Tanh()
    )
    (state_proj): Sequential(
      (0): Linear(in_features=18, out_features=256, bias=True)
      (1): LayerNorm((256,), eps=1e-05, elementwise_affine=True)
      (2): ReLU()
    )
  )
  (fc): Sequential(
    (0): Linear(in_features=306, out_features=256, bias=True)
    (1): LayerNorm((256,), eps=1e-05, elementwise_affine=True)
    (2): ReLU()
    (3): Linear(in_features=256, out_features=256, bias=True)
    (4): LayerNorm((256,), eps=1e-05, elementwise_affine=True)
    (5): ReLU()
    (6): Linear(in_features=256, out_features=256, bias=True)
    (7): LayerNorm((256,), eps=1e-05, elementwise_affine=True)
    (8): ReLU()
  )
  (fc_mean): Linear(in_features=256, out_features=6, bias=True)
  (fc_logstd): Linear(in_features=256, out_features=6, bias=True)
)
Critic(
  (proj): Projection(
  (rgb_proj): Sequential(
    (0): Linear(in_features=1024, out_features=50, bias=True)
    (1): LayerNorm((50,), eps=1e-05, elementwise_affine=True)
    (2): Tanh()
  )
  (state_proj): Sequential(
    (0): Linear(in_features=18, out_features=256, bias=True)
    (1): LayerNorm((256,), eps=1e-05, elementwise_affine=True)
    (2): ReLU()
  )
)
  (q0): Sequential(
  (0): Linear(in_features=312, out_features=512, bias=True)
  (1): LayerNorm((512,), eps=1e-05, elementwise_affine=True)
  (2): ReLU()
  (3): Linear(in_features=512, out_features=512, bias=True)
  (4): LayerNorm((512,), eps=1e-05, elementwise_affine=True)
  (5): ReLU()
  (6): Linear(in_features=512, out_features=512, bias=True)
  (7): LayerNorm((512,), eps=1e-05, elementwise_affine=True)
  (8): ReLU()
  (9): Linear(in_features=512, out_features=101, bias=True)
)
  (q1): Sequential(
  (0): Linear(in_features=312, out_features=512, bias=True)
  (1): LayerNorm((512,), eps=1e-05, elementwise_affine=True)
  (2): ReLU()
  (3): Linear(in_features=512, out_features=512, bias=True)
  (4): LayerNorm((512,), eps=1e-05, elementwise_affine=True)
  (5): ReLU()
  (6): Linear(in_features=512, out_features=512, bias=True)
  (7): LayerNorm((512,), eps=1e-05, elementwise_affine=True)
  (8): ReLU()
  (9): Linear(in_features=512, out_features=101, bias=True)
)
)
Task: SO101PlaceCube-v1, Control mode: pd_joint_target_delta_pos
Observations: (16, 16, 3), State: 18, Actions: 6
Buffer memory required: 1.60 GB
Device: cuda
-----------------------
steps:   0%|          | 0/2000000 [00:00<?, ?it/s]success_at_end: 0.00, success_once: 0.00, return: -5.02:   0%|          | 0/2000000 [00:06<?, ?it/s]success_at_end
…
